checkpoints/spice_predictor_best.pth (torch, 252779 bytes, 21 tensors)

conv_layers.0.weight f4 [32, 1, 7]
0.14966378 -0.0026371535 0.016619695 -0.29848284 0.15078409 0.35830584 -0.3308561 -0.022814525
-0.06310535 0.194596 0.056504063 -0.23802951 0.23884028 -0.19625211 -0.1662679 0.1041019
0.063693054 -0.1389239 0.14919223 -0.3333216 0.26106945 -0.20359893 -0.11791562 0.1421656
0.038742993 0.08679145 0.11620727 0.059403315 -0.25271645 0.0037204265 0.44484735 0.21643385
-0.33660638 -0.2101659 -0.034716778 -0.11590878 -0.23710264 -0.13722132 -0.012734011 0.14393426
0.038744345 0.16967188 0.05398188 0.19481392 -0.108032204 -0.05503557 0.067016385 0.24008507
0.23534603 0.12607609 0.1893785 0.44140452 0.4425708 0.06660483 0.2787492 -0.24943626
-0.15810098 0.08494206 -0.09284777 0.15768027 -0.2493362 -0.22727254 0.29777887 -0.31641805
0.31492478 -0.32823524 0.23180127 0.1896485 0.23846762 -0.18636395 0.24123614 -0.25226521
-0.096259944 -0.22009656 -0.32334894 0.37944403 0.27593514 0.12646882 0.06933714 -0.18745942
0.31137687 0.1802947 -0.31958535 -0.14428528 -0.33860654 0.054875102 0.29276574 -0.17667545
-0.13367783 -0.10632423 0.1893407 -0.10725595 -0.31883362 0.40425438 -0.011649413 -0.0013652466
-0.1192206 0.15678833 -0.27190897 -0.37251672 0.32728145 0.13123204 0.25720945 0.012838321
-0.07187544 0.100747645 0.006748851 -0.3128375 -0.117711544 0.13771956 -0.2566716 0.3426863
0.12339041 0.058121588 -0.12945974 0.45089316 0.11515288 0.04121344 -0.17001326 -0.3371493
-0.066552036 -0.33502585 0.3847209 -0.14277731 0.30075672 0.21187694 -0.36688468 0.29259858
0.018705131 -0.015107203 -0.106713586 0.07834002 0.20589739 -0.10684455 0.018507564 0.19192494
0.054266077 -0.42059693 0.063956425 0.23863459 0.101487264 0.30601794 -0.19088136 -0.3294541
-0.0030187939 0.15004216 -0.18537909 -0.07977598 -0.19813415 0.30009112 -0.25327954 0.27208427
0.085690655 -0.090638526 0.34941095 0.07777647 0.0969571 -0.1076994 -0.13417298 -0.33415022
-0.24065496 0.2828493 -0.2658448 -0.05110324 -0.20560564 -0.0046165753 -0.09038746 0.26748562
0.2222353 0.2930698 -0.09845685 -0.113836706 -0.254365 -0.19824412 0.08256778 -0.14097326
-0.1741874 -0.18414724 -0.050158013 -0.12551467 0.22186056 0.30166972 -0.37211934 -0.46659496
0.06463733 0.19308749 0.09966863 0.10565417 -0.07725224 -0.29239187 0.23670624 0.3705285
-0.31035724 0.45634705 -0.24247324 -0.21902329 0.28700733 -0.1526692 0.23162988 -0.22785641
0.04547966 0.04290231 -0.17192104 0.084030695 -0.334216 0.16668905 0.083091065 0.121368155
-0.296897 0.19015601 -0.16731127 0.034795456 0.12003108 -0.011842118 -0.332723 0.29567418
0.08645277 -0.25268775 0.30445126 0.045572747 -0.30017754 0.11551707 0.12930618 -0.06483027
00000000: 7641 193e 18d4 2cbb 0726 883c bed2 98be
00000010: 2567 1a3e dd73 b73e f965 a9be 87e5 babc
00000020: 613d 81bd 2c44 473e ce70 673d 02be 73be
00000030: 8c92 743e 50f6 48be 2242 2abe 6033 d53d
00000040: 8171 823d 1142 0ebe d9c5 183e 21a9 aabe
00000050: e5aa 853e 3d7c 50be bf7d f1bd dc93 113e
00000060: f9b0 1e3d b7bf b13d 14fe ed3d e450 733d
00000070: 0d64 81be 66d2 733b 08c3 e33e d6a0 5d3e
00000080: ac57 acbe bb35 57be 2e33 0ebd 9561 edbd
00000090: 09cb 72be bf83 0cbe 50a2 50bc 8163 133e
000000a0: 64b2 1e3d 77be 2d3e 1b1c 5d3d 4d7d 473e
000000b0: fd3f ddbd fa6c 61bd e33f 893d dcd8 753e
000000c0: 8dfe 703e 171a 013e 70ec 413e c6ff e13e
000000d0: a498 e23e 1d68 883d 37b8 8e3e 386c 7fbe
000000e0: 39e5 21be 1af6 ad3d f926 bebd f076 213e
000000f0: fd51 7fbe 22ba 68be 7976 983e 8c01 a2be
00000100: d23d a13e 730e a8be 505d 6d3e 3733 423e
00000110: db30 743e 31d6 3ebe 9b06 773e e828 81be
00000120: ef23 c5bd fe60 61be fe8d a5be 7d46 c23e
00000130: 5f47 8d3e 0b81 013e a100 8e3d 5df5 3fbe
00000140: ca6c 9f3e 2d9f 383e b1a0 a3be 85bf 13be
00000150: d65d adbe b7c4 603d 64e5 953e 69ea 34be
00000160: d7e2 08be 85c0 d9bd 87e2 413e 02a9 dbbd
00000170: 293e a3be 6efa ce3e 2edd 3ebc 13f2 b2ba
00000180: ee29 f4bd 1f8d 203e a737 8bbe 83ba bebe
00000190: 6f91 a73e b161 063e f5b0 833e d257 523c
000001a0: 6e33 93bd c854 ce3d 7725 dd3b 3d2c a0be
000001b0: c012 f1bd 5b06 0d3e 766a 83be 9474 af3e
000001c0: 1cb4 fc3d e710 6e3d 1891 04be 78db e63e
000001d0: 46d5 eb3d 6dcf 283d f517 2ebe d59e acbe
000001e0: 6f4c 88bd 8288 abbe 23fa c43e 3734 12be
000001f0: c9fc 993e 45f6 583e 4fd8 bbbe 7bcf 953e
00000200: 813b 993c 3484 77bc a78c dabd bb70 a03d
00000210: c4d6 523e 51d1 dabd 2d9d 973c f987 443e
00000220: 1b46 5e3d 7b58 d7be 96fb 823d a05c 743e
00000230: 8ed8 cf3d 62ae 9c3e 6776 43be 35ae a8be
00000240: f5d6 45bb a7a4 193e 04d4 3dbe 9761 a3bd
00000250: aee3 4abe 8ba5 993e dbad 81be a14e 8b3e
00000260: 957e af3d b1a0 b9bd fee5 b23e 4549 9f3d
00000270: 7291 c63d 8191 dcbd a464 09be bd15 abbe
00000280: 416e 76be a0d1 903e cf1c 88be a251 51bd
00000290: 498a 52be a446 97bb 101d b9bd e0f3 883e
000002a0: a791 633e 3f0d 963e bfa3 c9bd 3823 e9bd
000002b0: 213c 82be 8200 4bbe 4c19 a93d 4b5b 10be
000002c0: 2f5e 32be 1891 3cbe 7d72 4dbd eb86 00be
000002d0: 6a2f 633e 7474 9a3e 6d86 bebe 89e5 eebe
000002e0: 9460 843d bab8 453e 111f cc3d 3761 d83d
000002f0: 6c36 9ebd 63b4 95be 1f63 723e e9b5 bd3e
00000300: 25e7 9ebe 52a6 e93e e84a 78be a447 60be
00000310: a0f2 923e 5155 1cbe 6230 6d3e 3153 69be
00000320: e148 3a3d 55ba 2f3d 120c 30be 4918 ac3d
00000330: 5c1e abbe 89b0 2a3e a62b aa3d de8f f83d
00000340: e202 98be 42b8 423e a553 2bbe ae85 0e3d
00000350: dbd2 f53d 7105 42bc ab5a aabe 9b62 973e
00000360: 260e b13d 4a60 81be 09e1 9b3e 7daa 3a3d
00000370: dfb0 99be 3794 ec3d d768 043e bcc5 84bd

conv_layers.0.bias f4 [32]
-0.07640563 -0.013336829 -0.19904496 -0.03346103 -0.35949463 0.11130692 0.33015123 0.29578015
-0.17893113 -0.23406796 0.2902692 0.3438571 0.28124765 0.5785457 -0.017250523 0.12224421
-0.12287984 0.118248425 0.20043023 0.3661804 0.07107079 -0.39341202 0.056538045 -0.11610098
0.24240987 -0.3732625 0.33109152 0.0019156892 -0.0036981348 0.24434511 -0.20633195 -0.36678836
00000000: 8e7a 9cbd b782 5abc 71d2 4bbe 6f0e 09bd
00000010: ae0f b8be e2f4 e33d 9509 a93e 7f70 973e
00000020: b939 37be 83af 6fbe 2a9e 943e 0a0e b03e
00000030: b1ff 8f3e 921b 143f f850 8dbc 2c5b fa3d
00000040: 6da8 fbbd 3b2c f23d 953d 4d3e ff7b bb3e
00000050: 908d 913d 4d6d c9be 7094 673d 5ac6 edbd
00000060: 4b3a 783e 431c bfbe d484 a93e dd17 fb3a
00000070: 685c 72bb 9b35 7a3e af48 53be afcb bbbe

conv_layers.1.weight f4 [32]
1.0632573 1.1528863 0.9514294 0.928758 0.8516926 0.9143344 0.8117023 0.7542198
0.88929623 0.93812656 1.1466513 0.9425864 0.8851363 1.3252932 1.2188013 0.98514396
0.76728404 1.1264087 0.8881969 1.0216335 0.90790707 1.089529 0.88595366 0.97885776
1.0440049 0.9339169 0.83861774 1.0411516 0.95946133 1.1935973 1.059303 1.1862243
00000000: d118 883f c791 933f e190 733f 16c3 6d3f
00000010: 8708 5a3f d211 6a3f b9cb 4f3f 8c14 413f
00000020: eba8 633f 1029 703f 78c5 923f 584d 713f
00000030: 4b98 623f 35a3 a93f ae01 9c3f 6532 7c3f
00000040: ba6c 443f 292e 903f df60 633f e3c4 823f
00000050: 996c 683f b075 8b3f dccd 623f 6c96 7a3f
00000060: f4a1 853f 2e15 6f3f a7af 563f 7544 853f
00000070: 429f 753f ccc7 983f 3e97 873f 33d6 973f

conv_layers.1.bias f4 [32]
-0.082575105 -0.20534265 -0.16221665 -0.013438223 -0.16569546 -0.22244759 -0.05067636 -0.102881834
-0.10852626 0.029235741 -0.02007319 -0.2024533 -0.09695138 -0.045164816 -0.032285333 -0.2568077
-0.05643362 0.014567373 -0.0019691307 -0.0636282 -0.17474458 -0.0685578 -0.09531252 -0.15686575
-0.08523574 -0.051339433 -0.31918362 -0.030884586 -0.08399213 -0.111255005 -0.3348565 -0.11118108
00000000: 231d a9bd 5845 52be 1f1c 26be fe2b 5cbc
00000010: 12ac 29be 4dc9 63be 0492 4fbd b6b3 d2bd
00000020: 0443 debd cb7f ef3c 8870 a4bc eb4f 4fbe
00000030: 728e c6bd befe 38bd a03d 04bd 4d7c 83be
00000040: f126 67bd feab 6e3c 880c 01bb 804f 82bd
00000050: 3ef0 32be 0868 8cbd 3633 c3bd 6aa1 20be
00000060: 1390 aebd 4c49 52bd 096c a3be ac01 fdbc
00000070: 1104 acbd aad9 e3bd 5072 abbe e8b2 e3bd

conv_layers.1.running_mean f4 [32]
-0.0656255 -0.020500375 -0.21924469 -0.00044243483 -0.40729877 0.06666754 0.50975174 0.67343944
-0.23075286 -0.19013485 0.29305547 0.35452503 0.21747613 0.5799689 -0.013564949 0.09041905
0.018161656 0.1254603 0.2349132 0.37332714 0.026617168 -0.38405675 -0.028189955 -0.13640873
0.2222857 -0.4165147 0.20313857 0.0030462502 0.008629225 0.24882773 -0.19873473 -0.37385574
00000000: aa66 86bd 67f0 a7bc ae81 60be 99f6 e7b9
00000010: 7789 d0be fe88 883d 177f 023f 8766 2c3f
00000020: 7a4a 6cbe b6b2 42be 5e0b 963e 4e84 b53e
00000030: 10b2 5e3e d878 143f 853f 5ebc 9f2d b93d
00000040: c1c7 943c aa78 003e 168d 703e bc24 bf3e
00000050: 3f0c da3c 16a3 c4be 9fee e6bc bbae 0bbe
00000060: dd9e 633e 6a41 d5be 8f03 503e 99a3 473b
00000070: 9861 0d3c b2cc 7e3e 1e81 4bbe 056a bfbe

conv_layers.1.running_var f4 [32]
0.0004744867 0.00022732922 0.0003877083 0.0011758129 0.0018233324 0.0021812497 0.01134724 0.051759105
0.0013460012 0.0018024556 0.0011455347 0.00067224476 0.0017951567 0.0003623062 0.00145292 0.0010997824
0.0073836786 0.0034510775 0.001130927 0.00032168784 0.00142557 0.00037710115 0.006672975 0.0008093181
0.0019672792 0.002872882 0.007875622 0.0008578483 0.0008549279 0.0001924909 0.0002887237 0.00027387007
00000000: 87c4 f839 395f 6e39 5445 cb39 bc1d 9a3a
00000010: e2fc ee3a 4cf3 0e3b c6e9 393c 5b01 543d
00000020: 4e6c b03a 6040 ec3a c425 963a 9539 303a
00000030: 774b eb3a eaf3 bd39 e86f be3a 9326 903a
00000040: c9f2 f13b 792b 623b 9d3b 943a 36a8 a839
00000050: 31da ba3a a9b5 c539 f9a8 da3b 6b28 543a
00000060: 78ed 003b f646 3c3b c108 013c 3ae1 603a
00000070: 3d1d 603a 62d7 4939 d75f 9739 3896 8f39

conv_layers.4.weight f4 [64, 32, 5]
0.031409357 0.044975735 -0.17379063 0.102424845 0.042502113 -0.14711179 -0.106818646 -0.06199979
-0.12687288 0.0870814 0.08575197 0.012377806 -0.028116489 -0.0006190589 -0.122195244 -0.050603416
-0.045252904 -0.025562039 0.016477818 -0.008825872 0.026012802 -0.035420515 -0.060602866 0.0015473748
-0.052688397 -0.042537116 -0.03477077 -0.017760227 -0.0434505 -0.028295102 0.027144402 -0.0051656524
0.034390327 -0.039944608 0.014364784 0.08654371 0.052400377 0.02942382 -0.07900365 -0.05931878
0.10638555 -0.007958735 0.024086617 -0.13678394 0.0041583106 -0.03615685 0.06304508 -0.031096967
0.052218515 0.0034012499 0.026753267 0.08876177 -0.008526258 0.001280296 0.0028535167 -0.053818382
0.10362386 -0.034225225 -0.06064811 0.066024594 0.05669552 0.042888056 0.05761068 -0.04413136
-0.08077432 -0.25322092 0.05380377 0.10490367 -0.048098378 -0.041285783 -0.1699716 0.023185408
0.02424273 -0.00999074 0.08175074 0.034428596 0.035083655 -0.0061962944 -0.113177635 -0.104526795
0.02011809 -0.011887746 -0.024526928 -0.04508281 -0.09163894 -0.08241426 0.08046818 -0.042201273
-0.036460333 -0.056344647 0.059903454 -0.056115597 0.07998141 -0.034180637 -0.0588131 -0.014829807
-0.059566043 0.057253934 -0.06621957 0.05901593 -0.021704149 0.0371512 -0.15762149 -0.034307208
-0.10341511 -0.12020022 -0.044336036 -0.008726472 -0.012822906 0.050672844 0.0396366 -0.0022216265
-0.012064556 -0.06708385 -0.0596471 0.10499692 0.050919764 -0.0017030097 -0.09209748 0.040343944
0.11190013 -0.016507566 0.087682284 0.008741359 -0.13999927 0.078301564 -0.047209263 -0.009845914
-0.0131207695 -0.047119863 -0.019246018 -0.01001156 -0.003521057 -0.03817095 -0.045227423 -0.06137405
0.12054862 -0.011625775 -0.0814515 -0.030806301 -0.0278923 -0.0031705603 -0.076808214 -0.028556725
-0.069306314 -0.14070573 0.112199865 0.11845886 -0.10625333 -0.016917903 -0.07572054 -0.088607125
0.099151514 -0.077483684 0.017317768 0.06735822 -0.031998307 0.0014228878 0.08600787 0.011311582
0.13157487 -0.0951566 -0.06811447 -0.050942305 -0.030709784 -0.15178649 0.14401148 -0.07162039
-0.027472124 0.010720862 0.05616462 -0.009435121 -0.04689806 0.007307297 -0.05398807 -0.0018650847
0.05817944 -0.013394522 -0.12161251 -0.008269003 -0.044568807 0.021968625 -0.022598833 -0.04819272
-0.05115749 0.06700125 0.104586296 0.048776772 -0.062005315 -0.104222216 -0.049009793 -0.07950591
0.03343206 -0.07777741 -0.07248254 -0.0011932654 -0.05077894 -0.07013405 -0.05865811 0.006321362
0.08301343 -0.08767012 -0.036888715 -0.09907372 -0.10125996 0.04820453 -0.027693817 0.08996868
-0.0021458706 -0.03552834 -0.0054785223 -0.060021948 0.04467536 -0.044968456 -0.09042563 -0.057779044
0.019777607 -0.047110748 0.038024995 -0.015155832 0.031955604 0.07605042 0.011037399 -0.06505458
-0.0998243 0.027173897 0.032157406 -0.038912322 -0.06253536 -0.12002275 -0.022923306 -0.03959721
-0.087760374 -0.01407608 -0.038198277 0.095087975 0.054280814 -0.09009115 -0.052139644 -0.16489996
0.026533505 -0.06571217 -0.05664307 -0.008019555 -0.010103889 0.06447708 -0.018239139 0.09085393
0.106467195 -0.011428381 -0.05981649 0.045332015 0.0120828 -0.030441059 -0.024439415 -0.08021676
00000000: 19a7 003d 7a38 383d 2cf6 31be 1ec4 d13d
00000010: b216 2e3d 79a4 16be bcc3 dabd 7ef3 7dbd
00000020: f7ea 01be bc57 b23d bb9e af3d 48cc 4a3c
00000030: 8d54 e6bc 5748 22ba 8041 fabd 8745 4fbd
00000040: 1c5b 39bd 7b67 d1bc 7dfc 863c 649a 10bc
00000050: cd18 d53c 1a15 11bd b63a 78bd 48d1 ca3a
00000060: cacf 57bd 663b 2ebd cc6b 0ebd e57d 91bc
00000070: 27f9 31bd 21cb e7bc f05d de3c a244 a9bb
00000080: dfdc 0c3d f59c 23bd 455a 6b3c d43d b13d
00000090: c7a1 563d 390a f13c aacc a1bd 40f8 72bd
000000a0: abe0 d93d 5b65 02bc 4c51 c53c 1711 0cbe
000000b0: 7042 883b 3519 14bd c71d 813d 11bf febc
000000c0: 15e3 553d 81e7 5e3b ab29 db3c bbc8 b53d
000000d0: b8b1 0bbc 9bcf a73a 1102 3b3b aa70 5cbd
000000e0: bf38 d43d c02f 0cbd 276a 78bd e737 873d
000000f0: 9039 683d 63ab 2f3d 2df9 6b3d 16c3 34bd
00000100: 026d a5bd 2ca6 81be 5861 5c3d bcd7 d63d
00000110: ce02 45bd 481b 29bd 090d 2ebe 53ef bd3c
00000120: b198 c63c 33b0 23bc ef6c a73d 0005 0d3d
00000130: e1b3 0f3d 490a cbbb adc9 e7bd 2512 d6bd
00000140: b1ce a43c d2c4 42bc b2ec c8bc c1a8 38bd
00000150: 32ad bbbd cfc8 a8bd 80cc a43d 3edb 2cbd
00000160: 6e57 15bd a5c9 66bd 535d 753d 78d9 65bd
00000170: 4bcd a33d ff00 0cbd 01e6 70bd b8f8 72bc
00000180: 86fb 73bd 1a83 6a3d 209e 87bd b0ba 713d
00000190: e6cc b1bc db2b 183d 8767 21be b785 0cbd
000001a0: 4dcb d3bd 882b f6bd b499 35bd 7af9 0ebc
000001b0: 2a17 52bc 548e 4f3d fd59 223d b598 11bb
000001c0: 6aaa 45bc 4263 89bd 8450 74bd a008 d73d
000001d0: 3e91 503d 8637 dfba 9b9d bcbd b13f 253d
000001e0: e52b e53d e03a 87bc c592 b33d eb37 0f3c
000001f0: f85b 0fbe 925c a03d 805e 41bd c250 21bc
00000200: 7ff8 56bc c200 41bd d3a9 9dbc 8707 24bc
00000210: 89c1 66bb 2459 1cbd 6440 39bd 5b63 7bbd
00000220: 32e2 f63d 097a 3ebc 0bd0 a6bd 7f5d fcbc
00000230: 657e e4bc 2dc9 4fbb a04d 9dbd cbef e9bc
00000240: 78f0 8dbd 2a15 10be 0bc9 e53d 8f9a f23d
00000250: 599b d9bd 6a97 8abc 5f13 9bbd a777 b5bd
00000260: f30f cb3d c4af 9ebd fedd 8d3c 1bf3 893d
00000270: a810 03bd 3180 ba3a e524 b03d 3754 393c
00000280: 90bb 063e 77e1 c2bd 997f 8bbd e1a8 50bd
00000290: 1693 fbbc eb6d 1bbe bf77 133e b6ad 92bd
000002a0: 380d e1bc 8ea6 2f3c df0c 663d c495 1abc
000002b0: 2e18 40bd 0d72 ef3b 9822 5dbd dc75 f4ba
000002c0: 914d 6e3d b274 5bbc fb0f f9bd b67a 07bc
000002d0: c88d 36bd 8cf7 b33c 3021 b9bc bb65 45bd
000002e0: 848a 51bd f437 893d 5731 d63d 27ca 473d
000002f0: 49f9 7dbd 7572 d5bd 7ebe 48bd ffd3 a2bd
00000300: 0ef0 083d c349 9fbd ba71 94bd 5867 9cba
00000310: 94fd 4fbd 71a2 8fbd 7d43 70bd 6e23 cf3b
00000320: f202 aa3d 648c b3bd 9f18 17bd 2ae7 cabd
00000330: 6261 cfbd 1d72 453d 25de e2bc 8041 b83d
00000340: bca1 0cbb 2a86 11bd 2d85 b3bb 93d9 75bd
00000350: 83fd 363d d830 38bd 1331 b9bd b8a9 6cbd
00000360: a604 a23c 33f7 40bd 19c0 1b3d 2b50 78bc
00000370: e1e3 023d 53c0 9b3d 35d6 343c 563b 85bd
00000380: af70 ccbd cb9b de3c 7cb7 033d 8762 1fbd
00000390: 8a12 80bd 7dce f5bd a8c9 bbbc af30 22bd
000003a0: b6bb b3bd 5c9f 66bc cc75 1cbd 7cbd c23d
000003b0: 8f55 5e3d b581 b8bd 6190 55bd 89db 28be
000003c0: cb5c d93c 1a94 86bd 9002 68bd 7464 03bc
000003d0: c88a 25bc 8f0c 843d 3f6a 95bc a011 ba3d
000003e0: 790b da3d 1b3e 3bbc 2302 75bd 10ae 393d
000003f0: f0f6 453c 875f f9bc 2b35 c8bc af48 a4bd

conv_layers.4.bias f4 [64]
-0.061133962 0.028248454 0.06613971 -0.06050628 -0.008627691 5.789965e-05 -0.087260224 0.03257195
-0.036337722 -0.03360883 0.07195416 0.027920436 -0.02063605 0.08717331 -0.051110525 -0.028759075
-0.04909031 0.017945994 0.008807689 0.07171353 0.04932425 0.07223294 0.029001173 0.05540575
0.004758063 0.053112034 0.018533107 0.01896524 0.034977518 -0.012479647 0.0024867384 -0.022633383
-0.01460591 0.05287502 0.048200168 0.074288994 -0.051778074 -0.00026528488 0.005681634 -0.03177554
0.04181207 0.09921132 0.031971555 -0.042155948 -0.03542948 0.08106688 0.048461184 0.09390481
0.025014324 -0.012969351 -0.042474683 0.07775372 -0.038208038 0.045137323 -0.041542143 -0.033771016
-0.04975898 -0.08244548 -0.023258448 0.02973009 -0.04757514 -0.008701972 0.015229601 -0.04889133
00000000: 9b67 7abd 4d69 e73c 4274 873d 6fd5 77bd
00000010: 295b 0dbc 47d9 7238 7db5 b2bd 2a6a 053d
00000020: ddd6 14bd 6aa9 09bd b45c 933d 66b9 e43c
00000030: ef0c a9bc ec87 b23d 4559 51bd 2798 ebbc
00000040: ec12 49bd 7a03 933c 204e 103c 8bde 923d
00000050: 3a08 4a3d ddee 933d de93 ed3c 24f1 623d
00000060: 86e9 9b3b 018c 593d bed2 973c fe5c 9b3c
00000070: 9644 0f3d 6f77 4cbc 8cf8 223b a569 b9bc
00000080: a04d 6fbc 7a93 583d 8a6d 453d d424 983d
00000090: 3f15 54bd ef15 8bb9 002d ba3b 1227 02bd
000000a0: 2243 2b3d 4e2f cb3d 9bf4 023d b7ab 2cbd
000000b0: 811e 11bd 6406 a63d 3c7f 463d 2a51 c03d
000000c0: d7ea cc3c 677d 54bc eff9 2dbd 583d 9f3d
000000d0: 0880 1cbd eae1 383d 1828 2abd 7a53 0abd
000000e0: 12d0 4bbd 2dd9 a8bd 8088 bebc 858c f33c
000000f0: 26de 42bd b792 0ebc 9485 793c 4642 48bd

conv_layers.5.weight f4 [64]
1.0118548 0.9894283 1.0858566 0.93129325 0.95632315 1.0127876 1.0808606 0.9850896
1.0791403 1.0182958 0.9765635 0.97494453 1.0443813 0.98989123 1.0280452 0.87257856
0.9275903 0.95945394 0.928416 0.89656645 0.97193366 0.8331475 0.97995746 0.8503928
1.0485642 0.94517833 1.0047257 1.0484692 0.9361534 1.018423 1.0939301 0.88163644
0.9805106 1.0636041 0.9226208 0.94493073 1.2373068 1.0289973 1.0500734 1.0067791
0.9929003 1.0422003 1.0316255 0.981076 1.2036226 0.96233314 0.9287945 0.9999035
0.99207056 0.97215027 1.019981 0.9939111 1.0412402 0.97268796 0.9058907 0.9830895
1.0013591 0.8978503 1.007727 0.91617686 0.9374164 1.0013117 1.0223751 0.8573893
00000000: 7584 813f 2c4b 7d3f 59fd 8a3f 3c69 6e3f
00000010: 98d1 743f 06a3 813f a459 8a3f d52e 7c3f
00000020: 4521 8a3f 8457 823f 1100 7a3f f795 793f
00000030: 49ae 853f 8369 7d3f fc96 833f 4f61 5f3f
00000040: 8f76 6d3f c69e 753f acac 6d3f 6185 653f
00000050: a5d0 783f 2849 553f 7ede 7a3f 58b3 593f
00000060: 5a37 863f 35f7 713f da9a 803f 3d34 863f
00000070: c0a7 6f3f af5b 823f e705 8c3f edb2 613f
00000080: be02 7b3f 2e24 883f e030 6c3f fbe6 713f
00000090: 1260 9e3f 2fb6 833f ce68 863f 23de 803f
000000a0: b72e 7e3f d266 853f 4e0c 843f cc27 7b3f
000000b0: 4e10 9a3f 775b 763f 7ac5 6d3f adf9 7f3f
000000c0: 56f8 7d3f d7de 783f bd8e 823f f570 7e3f
000000d0: 5c47 853f 1402 793f 74e8 673f c1ab 7b3f
000000e0: 892c 803f 84d9 653f 33fd 803f 918a 6a3f
000000f0: 85fa 6f3f fb2a 803f 30dd 823f dd7d 5b3f

conv_layers.5.bias f4 [64]
-0.14949976 -0.28096613 -0.3277887 -0.23175693 -0.23800603 -0.19594446 -0.24839044 -0.18565653
-0.10005954 -0.0734457 -0.2340373 -0.17303711 -0.1735424 -0.23977199 -0.122081906 -0.096780315
-0.20920604 -0.17152733 -0.12434052 -0.16134414 -0.13871807 -0.19246066 -0.11535361 -0.13639735
-0.19408946 -0.044727713 -0.19196828 -0.12298954 -0.10754053 -0.23375691 -0.2749928 -0.23386152
-0.15385395 -0.2505342 -0.17714337 -0.10779315 -0.2703024 -0.23625195 -0.15990426 -0.13919929
-0.11245414 -0.2556597 -0.21783434 -0.17413776 -0.36166665 -0.19864392 -0.29482654 -0.14557327
-0.21024652 -0.15445995 -0.20095769 -0.101677574 -0.18022913 -0.13887848 -0.123938255 -0.2612149
-0.18756896 -0.065538876 -0.33808345 -0.08110722 -0.14264324 -0.15278874 -0.16666453 -0.162696
00000000: 7716 19be cbda 8fbe ecd3 a7be b051 6dbe
00000010: dab7 73be aaa5 48be 105a 7ebe bf1c 3ebe
00000020: 04ec ccbd b36a 96bd 79a7 6fbe a430 31be
00000030: 19b5 31be ca86 75be 1406 fabd c234 c6bd
00000040: 1c3a 56be dca4 2fbe 3ea6 febd 6637 25be
00000050: 1c0c 0ebe 6814 45be 833e ecbd bfab 0bbe
00000060: 63bf 46be 6834 37bd 5593 44be f1e1 fbbd
00000070: 363e dcbd f95d 6fbe dbcb 8cbe 6579 6fbe
00000080: e48b 1dbe 0546 80be 1265 35be a8c2 dcbd
00000090: 1465 8abe 08ec 71be f1bd 23be 428a 0ebe
000000a0: 5b4e e6bd d4e5 82be f70f 5fbe 2b51 32be
000000b0: 5f2c b9be 5069 4bbe 81f3 96be 2911 15be
000000c0: dd4a 57be c02a 1ebe dac7 4dbe 553c d0bd
000000d0: fc8d 38be 2936 0ebe 57d3 fdbd f6bd 85be
000000e0: 1412 40be 3f39 86bd 4619 adbe 8b1b a6bd
000000f0: 1211 12be a774 1cbe 1baa 2abe c899 26be

conv_layers.5.running_mean f4 [64]
-0.5195324 -0.7376285 -0.45482308 0.08551281 -0.37438983 -0.39468962 -0.59619004 -0.42316234
-0.4526229 -0.60722256 -0.8202957 -0.7936282 -0.6915797 -0.5888647 -0.652898 -0.31225172
0.20264743 -0.5053875 1.2055471 -0.66553575 -0.35753655 -0.5732248 -0.28213024 0.07352991
-0.33413818 -0.75265545 -0.58074176 -0.56164706 0.2651418 -0.6550166 -0.60605353 0.23392066
-0.5072909 -0.43048272 0.08404439 -0.17215706 -0.46817052 -0.5742942 -0.4086836 -0.49826667
-0.5555669 -0.56843036 -0.63203746 -0.83633965 -0.45583662 -0.37964624 -0.023748716 -0.2850687
-0.15484159 -0.4595346 -0.40956008 -0.30548158 -0.46032047 0.37274817 -0.62521946 -0.6331086
-0.5763215 -0.9804685 -0.35786307 -0.81207544 -0.8130358 -0.7672458 -0.5164226 0.8220655
00000000: 1300 05bf 39d5 3cbf 92de e8be 5721 af3d
00000010: 06b0 bfbe c214 cabe e99f 18bf bca8 d8be
00000020: 30be e7be f072 1bbf e6fe 51bf 382b 4bbf
00000030: 5e0b 31bf d6bf 16bf 5324 27bf 75df 9fbe
00000040: cf82 4f3e 1361 01bf 5e4f 9a3f 8d60 2abf
00000050: 080f b7be dcbe 12bf 6073 90be d996 963d
00000060: 2914 abbe 07ae 40bf 7eab 14bf 1ac8 0fbf
00000070: aac0 873e 2baf 27bf 5326 1bbf e688 6f3e
00000080: d1dd 01bf 3b68 dcbe 771f ac3d f149 30be
00000090: 0cb4 efbe f204 13bf fa3e d1be cf1c ffbe
000000a0: a239 0ebf a784 11bf 35cd 21bf 5b1a 56bf
000000b0: 6b63 e9be fe60 c2be ab8c c2bc 86f4 91be
000000c0: cb8e 1ebe 1e48 ebbe dcb1 d1be 1568 9cbe
000000d0: 20af ebbe d9d8 be3e 620e 20bf 6813 22bf
000000e0: ce89 13bf fcff 7abf d439 b7be 2de4 4fbf
000000f0: 1d23 50bf 396a 44bf 4634 04bf e272 523f

conv_layers.5.running_var f4 [64]
0.63870203 0.7639618 0.68261003 0.60647017 0.3741879 0.71203816 0.5526835 0.5156969
0.57498044 2.0258834 1.0098779 1.1123275 0.92163914 1.4378524 0.7443508 0.78124213
0.64931303 0.5976443 1.6872556 0.80997473 1.3050323 1.3165 0.936632 2.5933583
0.7905535 1.4261341 0.7786889 0.94925433 1.4202281 0.7913002 0.5043618 0.89026505
1.1508723 0.75385183 0.717901 0.4541559 0.52971363 0.98629147 0.5667568 1.4518057
0.58135986 0.7939902 0.7159683 1.0577108 0.48974854 0.61364645 0.4931406 0.55634147
0.73040754 1.1529247 0.8268045 1.1591263 0.5349219 0.69328 1.723302 0.9324451
1.3429506 2.0012248 0.43970874 1.4220895 1.1681733 1.6063975 0.97201407 0.82143724
00000000: fa81 233f 0093 433f 88bf 2e3f a141 1b3f
00000010: 8e95 bf3e 2248 363f aa7c 0d3f b604 043f
00000020: eb31 133f 13a8 0140 ae43 813f bf60 8e3f
00000030: 8bf0 6b3f 8c0b b83f c68d 3e3f 7cff 473f
00000040: 6139 263f 38ff 183f fef7 d73f 815a 4f3f
00000050: 4c0b a73f 1283 a83f 1dc7 6f3f 95f9 2540
00000060: b761 4a3f 908b b63f 2858 473f 5502 733f
00000070: 09ca b53f a692 4a3f db1d 013f 69e8 633f
00000080: c94f 933f 6ffc 403f 5cc8 373f 1f87 e83e
00000090: 509b 073f 997d 7c3f f916 113f c5d4 b93f
000000a0: 00d4 143f f142 4b3f b349 373f 1163 873f
000000b0: 52c0 fa3e ef17 1d3f ed7c fc3e 656c 0e3f
000000c0: fdfb 3a3f 0993 933f 76a9 533f 405e 943f
000000d0: a4f0 083f cc7a 313f 2995 dc3f b9b4 6e3f
000000e0: cee5 ab3f 1114 0040 8121 e13e 0707 b63f
000000f0: b486 953f 6f9e cd3f ead5 783f b649 523f

conv_layers.8.weight f4 [128, 64, 5]
-0.038448475 -0.030020544 -0.035011243 0.04337981 0.023008384 -0.0230542 -0.044090282 0.04180741
-0.0450237 0.06653966 0.012044814 0.0011713004 -0.037649248 -0.014338042 0.02929718 -0.088364914
-0.009307437 0.04149138 0.01603599 -0.03748494 -0.06601132 0.00431046 -0.048620515 0.10630323
0.01842308 -0.01651846 -0.029195694 0.0471765 -0.057567943 -0.06283473 -0.12320386 -0.02588033
0.027440907 -0.0060881716 0.015669182 -0.057800855 -0.0072799963 0.0058105635 -0.053989634 0.009365669
-0.09330761 -0.07338355 -0.07150844 -0.034240253 0.006683042 -0.022334594 -0.018281246 0.040553845
0.0387876 0.04352964 0.029573066 0.040078126 0.036081456 -0.00068018655 0.051267374 0.02908367
-0.0044977567 0.002724194 0.001201909 -0.015507846 0.038087234 -0.13814355 -0.057319302 -0.054717768
-0.03200016 -0.06854485 -0.03585909 -0.011935674 0.02775446 0.04890886 -0.050756384 -0.05478339
-0.025375199 -0.034939274 -0.023560781 -0.10738092 0.018508174 0.0031579756 -0.0028725376 0.016737744
-0.035161953 0.05818889 0.017446728 -0.00595927 -0.070528515 0.055219807 0.068145715 0.08374421
-0.025798615 0.07286167 -0.076678604 -0.09121612 0.0025203063 -0.02306579 -0.07366178 -0.01500132
-0.024110539 -0.0012880546 -0.004726391 0.036625415 0.026106147 -0.018476121 -0.077684954 0.010818555
0.003006972 0.007902083 -0.020889139 0.0452358 -0.0033554672 0.013336649 0.012931525 -0.0022912894
-0.020555958 0.024163458 -0.0029080817 0.062487736 0.05704365 -0.013060454 0.033706047 -0.0042650993
-0.020642232 0.035664447 0.011919286 -0.05170003 0.0142025715 -0.06447441 -0.046455614 -0.09413102
-0.046275996 -0.08556713 0.00520222 0.11648453 0.030446704 0.06904822 0.089423805 0.04043781
0.0072362423 0.037597504 -0.028416332 0.04183247 0.0553802 0.0021071061 0.051062446 0.0020386414
-0.042606812 -0.07490459 -0.04580198 -0.030515127 0.08401911 0.019631548 -0.07386008 -0.0064737336
0.0014678881 0.040258825 -0.042228125 -0.07061415 0.0044063926 -0.03809825 -0.092997864 -0.03297173
0.02045168 0.03404865 0.012496101 0.0047749467 0.013571895 -0.00808877 -0.031038439 -0.020199327
0.03334924 0.05753485 -0.1210187 -0.017413817 -0.10699996 0.0035825341 0.007427323 -0.058338724
-0.13654077 -0.0093160495 -0.03692544 0.065980345 -0.064052135 0.010435865 0.059876136 -0.014342956
0.08493364 -0.07468698 -0.008996961 0.017599372 -0.047564145 -0.0015800451 0.010015427 -0.052687317
-0.10553055 -0.14666738 -0.15770003 -0.04672046 -0.044303626 -0.043211386 -0.0063461824 -0.091646574
-0.056237124 -0.06119037 0.0038898895 -0.043893624 0.010254784 -0.08729366 -0.07494379 0.0043261386
0.018968618 0.062804475 -0.048061743 -0.0012236731 -0.016958604 -0.037981924 -0.017581614 -0.055663727
-0.08590521 -0.006632229 0.015404155 0.040803805 -0.090215676 -0.016887587 -0.024153499 -0.013945195
0.0020804242 0.031190066 -0.012165731 -0.015510237 0.01037428 0.07659333 -0.04551779 -0.034590274
-0.0016348588 -0.17550474 -0.025933407 -0.029694665 0.044041026 -0.045389898 0.07345494 0.08111356
0.019368785 0.05475595 -0.038260452 0.027517835 0.04280351 -0.054134753 -0.051036563 -0.10103229
0.014768786 -0.14782743 0.021522695 0.04712493 0.032115642 -0.03090603 0.0015583496 -0.029165791
00000000: 267c 1dbd a5ed f5bc f367 0fbd 07af 313d
00000010: 147c bc3c 29dc bcbc 0398 34bd 3f3e 2b3d
00000020: c56a 38bd f245 883d 9d57 453c 5286 993a
00000030: 1936 1abd 1bea 6abc a400 f03c aaf8 b4bd
00000040: 387e 18bc def2 293d e95d 833c cf89 19bd
00000050: f130 87bd c23e 8d3b 4e26 47bd 82b5 d93d
00000060: 00ec 963c b951 87bc cf2b efbc 253c 413d
00000070: 5dcc 6bbd 7faf 80bd 4e52 fcbd fc02 d4bc
00000080: c1cb e03c 497f c7bb a85c 803c 97c0 6cbd
00000090: 098d eebb 8a66 be3b 3c24 5dbd 7772 193c
000000a0: 0f18 bfbd 1d4a 96bd 0473 92bd 823f 0cbd
000000b0: 6bfd da3b 0af7 b6bc 8dc2 95bc ca1b 263d
000000c0: bfdf 1e3d 234c 323d 3743 f23c f628 243d
000000d0: 26ca 133d 8c4e 32ba bdfd 513d e040 ee3c
000000e0: eb61 93bb 6488 323b 6089 9d3a 9f14 7ebc
000000f0: 5c01 1c3d 8175 0dbe a5c7 6abd bd1f 60bd
00000100: 9a12 03bd 3e61 8cbd fbe0 12bd d88d 43bc
00000110: 525d e33c a854 483d ede5 4fbd 8c64 60bd
00000120: a6df cfbc 7c1c 0fbd 8a02 c1bc 87ea dbbd
00000130: 749e 973c 0af6 4e3b 2f41 3cbb 981d 893c
00000140: fb05 10bd 7957 6e3d 71ec 8e3c fb45 c3bb
00000150: 4171 90bd 2a2e 623d fb8f 8b3d 1682 ab3d
00000160: 9e57 d3bc 8038 953d ac09 9dbd 84cf babd
00000170: b92b 253b 78f4 bcbc fddb 96bd 19c8 75bc
00000180: 7783 c5bc f1d3 a8ba d7df 9abb 8804 163d
00000190: 8fdc d53c 3c5b 97bc 4a19 9fbd 4f40 313c
000001a0: 9e10 453b bd77 013c b31f abbc 2d49 393d
000001b0: 66e7 5bbb f681 5a3c bfde 533c 7529 16bb
000001c0: f864 a8bc 72f2 c53c 8495 3ebb 24f3 7f3d
000001d0: 9aa6 693d 84fb 55bc 5a0f 0a3d 3fc2 8bbb
000001e0: e619 a9bc e214 123d 1c49 433c 69c3 53bd
000001f0: e7b1 683c 290b 84bd 3e48 3ebd c4c7 c0bd
00000200: e68b 3dbd d23d afbd 6277 aa3b 718f ee3d
00000210: 5e6b f93c 2769 8d3d d423 b73d 1ea2 253d
00000220: 001e ed3b d7ff 193d 5ec9 e8bc 8658 2b3d
00000230: 59d6 623d 6017 0a3b db26 513d ba9a 053b
00000240: 7b84 2ebd 9467 99bd db9a 3bbd dcfa f9bc
00000250: 3612 ac3d 57d2 a03c f443 97bd 9d21 d4bb
00000260: 2766 c03a 70e6 243d 66f7 2cbd 279e 90bd
00000270: 8063 903b e90c 1cbd aa75 bebd 5d0d 07bd
00000280: 488a a73c 9976 0b3d 72bc 4c3c 2877 9c3b
00000290: a75c 5e3c c386 04bc 5344 febc 0f79 a5bc
000002a0: 3699 083d aaa9 6b3d a7d8 f7bd 6ca7 8ebc
000002b0: cc22 dbbd f3c8 6a3b e760 f33b 96f4 6ebd
000002c0: 58d1 0bbe 58a2 18bc 213f 17bd b420 873d
000002d0: c42d 83bd 31fb 2a3c ae40 753d b8fe 6abc
000002e0: b0f1 ad3d 7df5 98bd fd67 13bc 8f2c 903c
000002f0: 9fd2 42bd 8419 cfba bf17 243c a8ce 57bd
00000300: 6720 d8bd f92f 16be 1e7c 21be f45d 3fbd
00000310: b877 35bd 6cfe 30bd a3f3 cfbb 33b1 bbbd
00000320: e658 66bd c1a2 7abd 84ed 7e3b cdc9 33bd
00000330: ae03 283c 05c7 b2bd 217c 99bd 48c2 8d3b
00000340: 1364 9b3c a29f 803d 64dc 44bd a863 a0ba
00000350: c5ec 8abc ef92 1bbd 5107 90bc a6ff 63bd
00000360: 12ef afbd 2b53 d9bb b561 7c3c e421 273d
00000370: ffc2 b8bd d657 8abc 8fdd c5bc 637a 64bc
00000380: ba57 083b 4f82 ff3c c652 47bc a61e 7ebc
00000390: e2f8 293c f7dc 9c3d dd70 3abd 88ae 0dbd
000003a0: c248 d6ba 84b7 33be 4c72 d4bc 3a42 f3bc
000003b0: 5d64 343d c2ea 39bd 8b6f 963d de1e a63d
000003c0: 49ab 9e3c c647 603d feb6 1cbd 156d e13c
000003d0: bc52 2f3d 67bc 5dbd b70b 51bd 04ea cebd
000003e0: c7f8 713c 1360 17be 5d50 b03c 1206 413d
000003f0: b18b 033d a52e fdbc 8941 cc3a 19ed eebc

conv_layers.8.bias f4 [128]
0.008153912 0.02822043 0.017043836 -0.022422826 0.0054428 0.051407024 -0.042662486 0.03709334
0.037643846 0.016314238 -0.03128757 -0.03083362 0.011153289 0.030967303 -0.01779527 -0.044286724
-0.053945668 0.03336728 0.020594187 -0.04028974 -0.02925287 0.038718414 -0.012481666 -0.005820604
-0.0102984905 -0.026527945 0.048479214 -0.033380512 -0.0032646433 0.072482966 -0.03806769 0.015890114
-0.046499096 -0.017371219 -0.0056504393 -0.034662046 0.009406622 -0.04667576 -0.025910597 -0.015938403
-0.035200935 -0.023560127 -0.0115020685 0.013550239 0.008844504 -0.031571113 -0.03558676 -0.0810476
0.06588553 0.01935261 -0.026309447 -0.043867566 -0.04397615 0.05700521 0.027361386 0.0339028
0.014983776 0.031510632 0.018214662 0.028323576 0.037437882 -0.050579667 -0.056930795 0.017901313
0.05553618 0.004187426 0.024354853 -0.054070994 -0.021545434 0.014745167 -0.012903509 0.06691976
0.0031934716 0.042518236 0.012269236 -0.0067845522 -0.03865371 0.028595224 -0.0492341 -0.013782004
0.049782407 -0.025841765 -0.058546927 0.043628868 -0.024608366 0.058396902 -0.023722894 -0.024688814
0.0048359088 0.027084483 -0.027101364 -0.058475453 0.01034278 -0.035745773 -0.05689197 0.0066130245
0.018460067 -0.06783323 -0.012292304 0.06471045 0.055808246 -0.021014493 -0.018873364 0.012667331
-0.026716638 -0.00576554 0.010817355 -0.004926169 -0.03437152 -0.03009743 -0.05019143 -0.04907702
-0.05850456 -0.00016237529 0.048922606 0.035914745 -0.054857627 0.027729215 -0.015775781 -0.050227366
-0.017660605 0.037506707 -0.0225567 -0.043479174 -0.05357995 -0.043749508 0.019301167 -0.014257469
00000000: fc97 053c 882e e73c 849f 8b3c 13b0 b7bc
00000010: 8459 b23b 2c90 523d dcbe 2ebd 30ef 173d
00000020: 6f30 1a3d 70a5 853c 6527 00bd ca96 fcbc
00000030: 49bc 363c 24af fd3c 63c7 91bc ff65 35bd
00000040: 22f6 5cbd 21ac 083d 24b5 a83c db06 25bd
00000050: b7a3 efbc 3397 1e3d e77f 4cbc c4ba bebb
00000060: 00bb 28bc 2251 d9bc 2492 463d 01ba 08bd
00000070: a0f3 55bb f371 943d deec 1bbd fc2b 823c
00000080: d675 3ebd 164e 8ebc 5227 b9bb caf9 0dbd
00000090: 3b1e 1a3c 152f 3fbd 7642 d4bc 4191 82bc
000000a0: db2e 10bd 2b01 c1bc 2c73 3cbc d201 5e3c
000000b0: 8ae8 103c b650 01bd 6cc3 11bd 49fc a5bd
000000c0: feee 863d 5d89 9e3c e986 d7bc 7aae 33bd
000000d0: 5620 34bd 4c7e 693d fc24 e03c aadd 0a3d
000000e0: 837e 753c 4b11 013d ea36 953c d806 e83c
000000f0: 7758 193d a02c 4fbd 4430 69bd c6a5 923c
00000100: e879 633d ad36 893b d483 c73c 8c79 5dbd
00000110: 0d80 b0bc b795 713c 3d69 53bc 3a0d 893d
00000120: 9049 513b 9a27 2e3d e804 493c f350 debb
00000130: 5a53 1ebd 8840 ea3c b2a9 49bd eacd 61bc
00000140: a3e8 4b3d 1cb2 d3bc e7ce 6fbd 2fb4 323d
00000150: 7c97 c9bc 9731 6f3d 8456 c2bc 3240 cabc
00000160: 8b76 9e3b 47e0 dd3c ae03 debc f583 6fbd
00000170: c374 293c 296a 12bd 8e07 69bd 12b2 d83b
00000180: 9139 973c 26ec 8abd a965 49bc ea86 843d
00000190: 3097 643d 9626 acbc 509c 9abc a38a 4f3c
000001a0: dadc dabc dbec bcbb 463b 313c b36b a1bb
000001b0: 27c9 0cbd e38e f6bc 8795 4dbd fc04 49bd
000001c0: 7aa2 6fbd 4943 2ab9 1263 483d 571b 133d
000001d0: 64b2 60bd 6128 e33c 363c 81bc 36bb 4dbd
000001e0: f9ac 90bc a2a0 193d d4c8 b8bc 3817 32bd
000001f0: a676 5bbd af32 33bd 7b1d 9e3c 2998 69bc

conv_layers.9.weight f4 [128]
0.90316623 0.9972617 0.9869187 1.0120827 1.0476694 0.98985326 1.0190325 1.0040444
1.0023369 0.95656353 1.016921 1.0182657 1.0169694 1.0131775 1.0702864 0.97672963
0.9736351 1.0213572 0.9437967 0.9773352 1.0305457 1.0028166 1.0226558 1.0138091
0.9625097 0.9368526 0.9697841 1.0423627 1.022832 0.9633015 1.031554 0.9843129
1.0068793 0.97620314 1.0153899 0.9546063 1.0029347 1.0245289 1.0199068 1.0005608
1.1085461 1.0350766 0.99862605 1.0016178 0.97839177 0.97070706 1.0535878 1.1250083
0.984178 1.0507853 1.016826 1.0047177 1.0475813 1.0013381 1.0010377 0.9911234
1.0366002 1.0336132 1.0157617 0.98649794 0.999072 1.0074776 1.0610814 1.0944835
0.98665404 1.0019418 1.000661 1.0112686 1.0015712 1.0350924 1.0148352 1.0261221
1.0243409 1.0193853 1.0048547 1.0444642 0.99652225 0.9257461 1.0861212 1.0718054
1.0072527 0.9866447 1.0427575 1.0344075 0.92339045 0.9874578 1.020707 1.1073456
1.0452783 1.0071894 0.91886264 0.9874444 1.0313846 0.9606263 1.0107446 1.0067936
1.0153921 1.0071074 1.0477006 1.0610155 0.98356146 0.99206287 1.011794 0.9733646
1.0162728 0.99510646 1.0123812 1.0364082 1.0142207 1.1156627 1.0071572 0.9948371
1.0352402 1.0163443 1.0071497 1.0165428 0.9857077 0.952394 1.0438706 0.99952716
1.0012699 0.9938797 0.9587906 1.0181113 1.0362304 1.0248027 1.1030902 1.0162454
00000000: e735 673f 8b4c 7f3f b4a6 7c3f ed8b 813f
00000010: 081a 863f 0667 7d3f a86f 823f 8784 803f
00000020: 934c 803f 59e1 743f 782a 823f 8856 823f
00000030: 0e2c 823f cdaf 813f 25ff 883f f40a 7a3f
00000040: 2640 793f d5bb 823f a99c 713f a432 7a3f
00000050: ece8 833f 4b5c 803f 63e6 823f 7fc4 813f
00000060: 0967 763f 92d5 6f3f c543 783f 246c 853f
00000070: 29ec 823f ed9a 763f f609 843f eefb 7b3f
00000080: 6ce1 803f 73e8 793f 4cf8 813f 1461 743f
00000090: 2a60 803f c323 833f 4e8c 823f 6012 803f
000000a0: d7e4 8d3f 647d 843f f5a5 7f3f 0335 803f
000000b0: e277 7a3f 4280 783f f7db 863f 4600 903f
000000c0: 17f3 7b3f 2280 863f 5b27 823f 979a 803f
000000d0: 2517 863f d92b 803f 0122 803f 43ba 7d3f
000000e0: 51af 843f 704d 843f 7b04 823f 218b 7c3f
000000f0: 2fc3 7f3f 07f5 803f 84d1 873f 0918 8c3f
00000100: 5c95 7c3f a13f 803f a915 803f 4071 813f
00000110: 7c33 803f e87d 843f 1fe6 813f f857 833f
00000120: 9a1d 833f 387b 823f 149f 803f 01b1 853f
00000130: 151c 7f3f b2fd 6c3f 0506 8b3f eb30 893f
00000140: a8ed 803f bf94 7c3f 1479 853f 7767 843f
00000150: 5163 6c3f 09ca 7c3f 87a6 823f 80bd 8d3f
00000160: aecb 853f 95eb 803f 953a 6b3f 28c9 7c3f
00000170: 6904 843f 9beb 753f 1460 813f 9dde 803f
00000180: 5ef8 813f e5e8 803f 0e1b 863f 5bcf 873f
00000190: afca 7b3f d5f7 7d3f 7782 813f 6c2e 793f
000001a0: 3a15 823f 4cbf 7e3f b595 813f 06a9 843f
000001b0: fcd1 813f 09ce 8e3f 87ea 803f a5ad 7e3f
000001c0: c082 843f 9217 823f 48ea 803f 131e 823f
000001d0: 5757 7c3f 18d0 733f 8d9d 853f 03e1 7f3f
000001e0: 9d29 803f e66e 7e3f 4d73 753f 7951 823f
000001f0: 33a3 843f bc2c 833f 0f32 8d3f 5414 823f

conv_layers.9.bias f4 [128]
-0.13575323 -0.085364185 -0.06781557 -0.02524818 -0.0825089 -0.10660709 -0.03687931 -0.08123035
-0.07295643 -0.12470253 -0.080183096 -0.107767604 -0.12327179 -0.058160044 -0.00902945 -0.06350216
-0.104235865 -0.006958913 -0.07569925 -0.096876204 -0.06992914 -0.09055985 -0.09456823 -0.08879645
-0.09918429 -0.14949043 -0.09419315 -0.02319978 -0.08055073 -0.08171746 -0.029097658 -0.07933812
-0.10496405 -0.044709638 -0.09915507 -0.119142 -0.052761175 -0.15494163 -0.082089156 -0.09662776
3.4801007e-05 -0.050182093 -0.047608152 -0.08572465 -0.08221491 -0.15841034 -0.03741266 -0.00832726
-0.10594765 -0.07254838 -0.104572974 -0.026016414 -0.10976594 -0.11299576 -0.14654818 -0.055868793
-0.069924004 -0.036093567 -0.1434239 -0.0826058 -0.10931735 -0.12948932 0.004021871 -0.035890117
-0.086238176 -0.11675289 -0.10183703 -0.12016753 -0.12996717 -0.0049465466 -0.0742461 -0.09636921
-0.082027 -0.11771376 -0.107416905 -0.07522892 -0.07892034 -0.19145247 -0.019518442 0.02363163
-0.068057016 -0.079241924 -0.025422499 -0.08323187 -0.12957966 -0.10244959 -0.07890872 0.00502846
-0.019264197 -0.08209273 -0.11535898 -0.07768391 -0.12338099 -0.17282943 -0.1200413 -0.079932176
-0.089948565 -0.07967176 -0.04808304 0.0009966026 -0.09520963 -0.1159217 -0.099668294 -0.076153934
-0.09774597 -0.10280505 -0.10727661 -0.076539144 -0.08603593 0.00773602 -0.04158328 -0.033978038
-0.025426086 -0.07061495 -0.09693717 -0.08945774 -0.090964295 -0.16779174 -0.06505379 -0.10395551
-0.10568308 -0.14243867 -0.22224878 -0.08910652 -0.009062628 -0.10227508 -0.029739624 -0.08832985
00000000: e502 0bbe 6bd3 aebd e4e2 8abd 45d5 cebc
00000010: 6dfa a8bd d154 dabd c20e 17bd 195c a6bd
00000020: 2e6a 95bd 0a64 ffbd 0937 a4bd 43b5 dcbd
00000030: ec75 fcbd 3a39 6ebd 42f0 13bc 6c0d 82bd
00000040: 9d79 d5bd 9807 e4bb 3508 9bbd 0867 c6bd
00000050: 0237 8fbd 7177 b9bd fdac c1bd eada b5bd
00000060: 2221 cbbd 0514 19be 57e8 c0bd 770d bebc
00000070: c8f7 a4bd 7c5b a7bd 365e eebc 067c a2bd
00000080: 64f7 d6bd 7421 37bd d011 cbbd b900 f4bd
00000090: 1a1c 58bd 05a9 1ebe 5c1e a8bd c6e4 c5bd
000000a0: 4cf7 1138 bd8b 4dbd c400 43bd 6890 afbd
000000b0: 4a60 a8bd 5236 22be 043e 19bd 0f6f 08bc
000000c0: 15fb d8bd 3f94 94bd 5b2a d6bd 6020 d5bc
000000d0: f7cc e0bd 526a e7bd ba10 16be add6 64bd
000000e0: 5134 8fbd d9d6 13bd b7dd 12be 3b2d a9bd
000000f0: c6e1 dfbd d998 04be e6c9 833b 8401 13bd
00000100: a49d b0bd 241c efbd ef8f d0bd 651a f6bd
00000110: 1d16 05be a416 a2bb 570e 98bd 385d c5bd
00000120: c6fd a7bd e913 f1bd 65fd dbbd 9f11 9abd
00000130: fda0 a1bd 1e0c 44be 24e5 9fbc 1f97 c13c
00000140: 7a61 8bbd 9749 a2bd d842 d0bc 7875 aabd
00000150: 88b0 04be 17d1 d1bd e59a a1bd c8c5 a43b
00000160: f3cf 9dbc 3c20 a8bd 5441 ecbd be18 9fbd
00000170: 2caf fcbd 33fa 30be 37d8 f5bd 7bb3 a3bd
00000180: f436 b8bd f32a a3bd b9f2 44bd 6fa0 823a
00000190: 44fd c2bd 5b68 edbd e41e ccbd 98f6 9bbd
000001a0: 0a2f c8bd 748b d2bd d7b3 dbbd 8ec0 9cbd
000001b0: 9b33 b0bd 707e fd3b 3b53 2abd 8e2c 0bbd
000001c0: 5e4a d0bc 929e 90bd ff86 c6bd 9f35 b7bd
000001d0: 7d4b babd 99d1 2bbe ec3a 85bd a0e6 d4bd
000001e0: 5f70 d8bd 71db 11be 2f95 63be 7b7d b6bd
000001f0: 6b7b 14bc 9975 d1bd 83a0 f3bc 48e6 b4bd

conv_layers.9.running_mean f4 [128]
-0.87343603 -0.5106208 -0.83901125 -0.17542608 -0.48819786 -0.5715371 -0.03585801 -0.004837612
-0.44784367 -0.5379527 0.02987746 -0.37250334 -0.42479473 -0.4590105 -0.95944595 -0.8371662
0.7701966 0.05610978 -0.61529934 -0.40533772 -0.7197378 -0.4286788 -0.11764417 -0.32461333
-0.38082525 -0.18554036 -0.69717795 -0.53121024 -0.11419236 -0.6871301 -0.03101358 -0.797594
-0.27008367 -0.56463575 -0.4183799 -0.26671755 -0.36475453 0.052208435 -0.29435635 -0.537798
0.56444925 -0.82669324 -0.79610944 -0.2849098 -0.2028521 -0.39199033 -1.1260817 0.11312678
0.029864375 -0.24905343 0.04564321 -0.06301701 -0.6432074 -0.27409267 0.11654529 -0.0750515
-0.41974154 -0.8092404 -0.45541117 -0.5113428 -0.5937789 -0.45209923 -0.9014854 0.39411792
-0.17749053 -0.38271958 -0.5923509 -0.34746823 -0.3559469 -1.1940829 -0.39343926 -0.142817
-0.40786824 -0.40077105 -0.35697573 -0.27013367 -0.47597057 -0.3784269 -0.26125905 -0.68636256
-0.31387487 -1.0743726 -0.6854905 -0.35416856 -0.44552588 -0.62814873 -0.18628836 0.3274636
-0.96340585 -0.35738218 -1.3636943 -0.67735994 -0.45518717 -0.0942411 -0.5729797 -0.29321906
0.12442465 -0.44376016 -1.250773 0.5931382 0.09016713 -0.5147659 -0.08426213 -0.7470706
-0.41615775 -0.61005574 0.018893491 -0.40443018 -0.3147181 -0.95387214 0.2441683 -0.67980045
-0.9899849 -0.42515603 -0.37624386 -0.35147783 -0.48399344 0.17028917 -0.30294695 -0.19461992
1.5505263 -0.38038957 -0.15116638 -0.29313385 0.19188157 -0.33929947 0.0921817 -0.50980335
00000000: 8199 5fbf 0bb8 02bf 71c9 56bf e5a2 33be
00000010: 12f5 f9be 4150 12bf d9df 12bd d584 9ebb
00000020: c44b e5be 45b7 09bf 93c1 f43c c2b8 bebe
00000030: b27e d9be 6d03 ebbe 409e 75bf 8650 56bf
00000040: 9b2b 453f 5ed3 653d 4284 1dbf 6d88 cfbe
00000050: bd40 38bf ca7b dbbe 6def f0bd b833 a6be
00000060: 87fb c2be 4bfe 3dbe 417a 32bf 65fd 07bf
00000070: afdd e9bd c2e7 2fbf 3110 febc 1f2f 4cbf
00000080: 6848 8abe f88b 10bf e435 d6be 348f 88be
00000090: 1bc1 babe 83d8 553d e0b5 96be 21ad 09bf
000000a0: bf7f 103f 2ba2 53bf d4cd 4bbf b3df 91be
000000b0: 76b8 4fbe f5b2 c8be 7223 90bf 03af e73d
000000c0: 22a6 f43c dd07 7fbe 60f4 3a3d 100f 81bd
000000d0: 3da9 24bf e055 8cbe 4caf ee3d 9ab4 99bd
000000e0: 5de8 d6be 612a 4fbf a72b e9be 5de7 02bf
000000f0: e501 18bf 8d79 e7be bfc7 66bf d3c9 c93e
00000100: 14c0 35be d2f3 c3be 4fa4 17bf 5be7 b1be
00000110: ac3e b6be b5d7 98bf df70 c9be 9f3e 12be
00000120: 1bd4 d0be dd31 cdbe 86c5 b6be f64e 8abe
00000130: 6ab2 f3be 2cc1 c1be bfc3 85be 75b5 2fbf
00000140: 35b4 a0be 0b85 89bf 4e7c 2fbf 9555 b5be
00000150: f81b e4be 5bce 20bf 60c2 3ebe 4fa9 a73e
00000160: c4a1 76bf ccfa b6be 898d aebf 7667 2dbf
00000170: 4b0e e9be 7a01 c1bd ccae 12bf cf20 96be
00000180: 5ad2 fe3d 8834 e3be 5419 a0bf e8d7 173f
00000190: 8ba9 b83d b3c7 03bf a091 acbd 0540 3fbf
000001a0: a112 d5be 9d2c 1cbf 86c6 9a3c 7911 cfbe
000001b0: bb22 a1be f730 74bf 4107 7a3e 6707 2ebf
000001c0: a76f 7dbf 0dae d9be 09a3 c0be e7f4 b3be
000001d0: fdcd f7be 4960 2e3e dd1b 9bbe 724a 47be
000001e0: a577 c63f 6cc2 c2be 5ccb 1abe a415 96be
000001f0: 9a7c 443e a9b8 adbe c2c9 bc3d 7982 02bf

conv_layers.9.running_var f4 [128]
0.39434537 0.27570388 0.4943543 0.4749069 0.25436318 0.32341334 0.730753 0.3221173
0.37598953 0.5270356 0.33546743 0.31634894 0.24984495 0.2710635 0.42726013 0.4466325
0.5949885 0.35314748 0.3831844 0.40845686 0.36141577 0.2755685 0.48700315 0.3101083
0.4665396 0.34855375 0.42722234 0.2820076 0.3999487 0.28339294 0.3652786 0.3292706
0.40859786 0.36698082 0.32487133 0.29197133 0.29378203 0.35122016 0.39354265 0.34751186
0.389963 0.23016872 0.48990205 0.24264263 0.42583942 0.28954205 0.37582916 0.38579416
0.34563679 0.34382915 0.2861322 0.5668622 0.28672898 0.4835598 0.3087576 0.4769614
0.46561942 0.4090571 0.2974103 0.35116017 0.6819047 0.32918155 0.44297525 0.36198285
0.4027527 0.3006814 0.27662706 0.27192628 0.35631517 0.41035628 0.2788088 0.30598378
0.28977606 0.29565644 0.28916126 0.34322426 0.348095 0.43694013 0.45592323 0.41626543
0.43589857 0.3327533 0.44770598 0.33736917 0.29239103 0.47408044 0.2787869 0.42158616
0.52764714 0.45392516 0.52484727 0.30102605 0.2985166 0.26557174 0.27362478 0.47950998
0.40775475 0.31125692 0.46865496 0.3927248 0.22481574 0.3055589 0.46348637 0.3007032
0.35693517 0.47611514 0.29317257 0.48134384 0.29318532 0.50247824 0.5254163 0.45311365
0.5243607 0.37888077 0.40106165 0.37115657 0.31008506 0.2385216 0.28267768 0.38221574
0.6031211 0.3372606 0.26900762 0.3196399 0.3809812 0.23993334 0.42205176 0.44126907
00000000: a3e7 c93e 0f29 8d3e 021c fd3e ff26 f33e
00000010: e43b 823e 6f96 a53e a112 3b3f 8fec a43e
00000020: b381 c03e ceeb 063f 63c2 ab3e 7df8 a13e
00000030: 5bd7 7f3e d6c8 8a3e d7c1 da3e 04ad e43e
00000040: 2b51 183f bfcf b43e bf30 c43e 4221 d13e
00000050: 7d0b b93e 5017 8d3e 7a58 f93e 84c6 9e3e
00000060: 47de ee3e a375 b23e e3bc da3e 4d63 903e
00000070: 13c6 cc3e e118 913e cc05 bb3e 2896 a83e
00000080: bd33 d13e e9e4 bb3e 8955 a63e 447d 953e
00000090: 996a 963e 21d3 b33e 6c7e c93e 13ed b13e
000000a0: 3ba9 c73e 59b1 6b3e 71d4 fa3e 4f77 783e
000000b0: a007 da3e db3e 943e ae6c c03e d086 c53e
000000c0: 4ef7 b03e 600a b03e eb7f 923e e21d 113f
000000d0: 24ce 923e 2695 f73e 7a15 9e3e 4934 f43e
000000e0: ab65 ee3e ef6f d13e 2a46 983e 44cb b33e
000000f0: 4e91 2e3f 7c8a a83e a7cd e23e d155 b93e
00000100: 9a35 ce3e eaf2 993e 10a2 8d3e ec39 8b3e
00000110: f16e b63e 381a d23e 07c0 8e3e e8a9 9c3e
00000120: 875d 943e 4860 973e f20c 943e 17bb af3e
00000130: 8239 b23e 9eb6 df3e c56e e93e be20 d53e
00000140: 192e df3e a45e aa3e b839 e53e a7bb ac3e
00000150: 47b4 953e acba f23e 28bd 8e3e 24da d73e
00000160: e213 073f e168 e83e 645c 063f 1620 9a3e
00000170: 2bd7 983e 05f9 873e 8c18 8c3e 5582 f53e
00000180: 3bc5 d03e 115d 9f3e 8bf3 ef3e 3a13 c93e
00000190: 1936 663e 3772 9c3e 164e ed3e c5f5 993e
000001a0: 35c0 b63e 5dc5 f33e b71a 963e b372 f63e
000001b0: 631c 963e 6aa2 003f af81 063f 83fe e73e
000001c0: 813c 063f a9fc c13e f457 cd3e 3c08 be3e
000001d0: 78c3 9e3e 023f 743e 21bb 903e c8b1 c33e
000001e0: 2566 1a3f 6cad ac3e 5ebb 893e d7a7 a33e
000001f0: f80f c33e 16b1 753e 2b17 d83e 05ee e13e
